…
          "base_uri": "https://localhost:8080/"
        },
        "id": "F-11yJPnVyyt",
        "outputId": "c54e3a6b-a43d-4d2a-b62d-5ad00cdf8232"
      },
      "execution_count": 10,
      "outputs": [
        {
          "output_type": "stream",
          "name": "stdout",
          "text": [
            "Model: \"sequential\"\n",
            "_________________________________________________________________\n",
            " Layer (type)                Output Shape              Param #   \n",
            "=================================================================\n",
            " conv2d (Conv2D)             (None, 254, 254, 32)      896       \n",
            "                                                                 \n",
            " batch_normalization (Batch  (None, 254, 254, 32)      128       \n",
            " Normalization)                                                  \n",
            "                                                                 \n",
            " max_pooling2d (MaxPooling2  (None, 127, 127, 32)      0         \n",
            " D)                                                              \n",
            "                                                                 \n",
            " conv2d_1 (Conv2D)           (None, 125, 125, 64)      18496     \n",
            "                                                                 \n",
            " batch_normalization_1 (Bat  (None, 125, 125, 64)      256       \n",
            " chNormalization)                                                \n",
            "                                                                 \n",
            " max_pooling2d_1 (MaxPoolin  (None, 62, 62, 64)        0         \n",
            " g2D)                                                            \n",
            "                                                                 \n",
            " conv2d_2 (Conv2D)           (None, 60, 60, 128)       73856     \n",
            "                                                                 \n",
            " batch_normalization_2 (Bat  (None, 60, 60, 128)       512       \n",
            " chNormalization)                                                \n",
            "                                                                 \n",
            " max_pooling2d_2 (MaxPoolin  (None, 30, 30, 128)       0         \n",
            " g2D)                                                            \n",
            "                                                                 \n",
            " flatten (Flatten)           (None, 115200)            0         \n",
            "                                                                 \n",
            " dense (Dense)               (None, 128)               14745728  \n",
            "                                                                 \n",
            " dropout (Dropout)           (None, 128)               0         \n",
            "                                                                 \n",
            " dense_1 (Dense)             (None, 64)                8256      \n",
            "                                                                 \n",
            " dropout_1 (Dropout)         (None, 64)                0         \n",
            "                                                                 \n",
            " dense_2 (Dense)             (None, 1)                 65        \n",
            "                                                                 \n",
            "=================================================================\n",
            "Total params: 14848193 (56.64 MB)\n",
            "Trainable params: 14847745 (56.64 MB)\n",
            "Non-trainable params: 448 (1.75 KB)\n",
            "_________________________________________________________________\n"
…
